deep_Q_learning_files/dql_agent_episode_1000.pth (torch, 48018 bytes, 14 tensors)

layers.0.weight f4 [128, 10]
000000 4f e0 a5 bc 5c 5a 3b 3e 07 cc 41 bd 4a 9f 76 be
       -0.02024856 0.18296188 -0.047313716 -0.24084201
000010 35 34 b5 3d 98 7b 7e be 93 4f 7d 3e 1a 94 a9 be
       0.08847848 -0.24851835 0.24737386 -0.33120805
000020 19 df 7e be 31 26 49 be 77 92 3e 3e 95 13 1d 3e
       -0.24889793 -0.19643475 0.1861056 0.15339501
000030 04 fc e7 be 45 52 8e 3e 71 26 c7 3e fe 7f 54 be
       -0.4530946 0.27797142 0.38896516 -0.2075195
000040 09 d3 40 3e 99 85 5d 3e 6a 7b 00 be bb b8 b9 3c
       0.18830504 0.21632995 -0.12547079 0.022671094
000050 2e b9 f2 3d 8f 2d 65 3e a5 db 21 3d 9a 63 c5 bc
       0.118517265 0.2238066 0.03951611 -0.024095345
000060 30 d5 01 bd 26 35 ab 3d 95 bb c1 bd 04 d6 df be
       -0.031697452 0.08359747 -0.094596066 -0.43717968
000070 ce 4d 52 be bf 32 02 3f d7 41 1b 3e 01 31 0e 3e
       -0.20537493 0.5085868 0.15161835 0.13885881
000080 39 b2 96 be 5c 1e 41 3e 20 b0 4a bc 4e 8b 79 be
       -0.29432848 0.18859237 -0.012371093 -0.24369547
000090 12 93 91 be 00 bd 90 be 75 b3 e8 bd 31 bf 81 3e
       -0.28432518 -0.28269196 -0.11362354 0.2534118
0000a0 4e 77 8d 3c 10 57 9f 3e 7e f5 4a be 39 28 5f be
       0.017268803 0.3112111 -0.1982021 -0.21792687
0000b0 c6 5c 5d be 76 41 65 3d 2c e9 00 3e e2 0c b9 3c
       -0.21617422 0.05597063 0.12588948 0.02258915
0000c0 98 8b 8c bd 9e cc 7a 3d c1 6b bc 3d ae c5 fc bd
       -0.06862563 0.061230294 0.0920024 -0.12342392
0000d0 04 57 a5 be b4 f1 81 bd de 71 0c 3f 24 07 6f 3e
       -0.3229295 -0.06344929 0.5486125 0.23342568
0000e0 1b 17 50 be 3d 55 ce bd 4e 92 0d 3e 67 e6 fb 3c
       -0.20321314 -0.10074852 0.13825342 0.030749513
0000f0 a8 86 08 3f 78 39 b7 3e 93 bc 0c be d9 9b ee 3c
       0.5333047 0.35786033 -0.1374381 0.029127048
000100 4f 54 12 be 42 0e 49 3e 15 b0 72 bd 07 ae 42 3d
       -0.14289974 0.19634345 -0.059249956 0.047529247
000110 1f 8e 43 3e ea c2 96 3e 61 2c 55 3e 11 c0 d3 3b
       0.19097184 0.29445583 0.2081771 0.006462105
000120 e8 28 7c bc 05 3c a7 3c 85 69 48 3e 37 47 95 3d
       -0.015390612 0.020414362 0.19571503 0.07288974
000130 ae b8 1e 3e d5 a7 b6 bd d6 3d 20 3e cf 4e c7 bd
       0.15500137 -0.0891873 0.15648589 -0.097318284
000140 1f 28 3f be 61 29 ed 3c 20 63 f6 3d 39 56 bb 3e
       -0.18667649 0.028950395 0.12030625 0.3658922
000150 b4 01 34 be 14 81 c4 3d 77 a2 bb bd 6c a6 49 3e
       -0.17578775 0.09594932 -0.09161847 0.19692391
000160 26 82 c2 bd 89 c0 a2 3a da ae 0f 3e 28 7d 1a bd
       -0.0949748 0.0012416999 0.14031544 -0.037717015
000170 76 48 13 3f 0b eb 72 be 06 9f 0b 3e 86 d4 9f 3e
       0.5753244 -0.23722474 0.13634881 0.3121683
000180 86 62 fe bd d6 bf 69 3c 38 77 77 be bb 2d 42 be
       -0.124211356 0.014266929 -0.24166572 -0.18962757
000190 5f 60 7d 3d 4b c8 f7 3d 25 7f 4a be 6e 9f df bd
       0.061859485 0.1209875 -0.19775064 -0.10919081
0001a0 64 52 28 3e 39 62 f7 3c ec 4b 15 bd a1 95 8b bd
       0.1643768 0.030198203 -0.036449358 -0.06815649
0001b0 5f 14 0d 3e b6 0e 51 be bb 15 ca 3c 9f 88 69 bd
       0.13777302 -0.20415768 0.024668565 -0.057015058
0001c0 3e fb 86 3e 57 40 95 3c 0a 77 23 3e 0c 60 fa bc
       0.26363558 0.018219156 0.15963379 -0.030563377
0001d0 90 49 53 be 40 0f 7c 3e 3c 9c 3f bd ef 98 33 be
       -0.2063353 0.24615192 -0.046779856 -0.17538808
0001e0 0d 70 39 3c 98 cf 77 be 2e c1 98 3e 08 7e ee bc
       0.011318219 -0.24200284 0.29834884 -0.02911283
0001f0 2b b3 1c 3e d2 a1 43 3d 2d cc a9 3d 0d 02 7e be
       0.15302722 0.047761746 0.082908966 -0.2480547
000200 ba 27 01 be c9 2a 03 be ad 18 16 3d 3f 8a 4f be
       -0.1261281 -0.1280929 0.036644626 -0.2026758
000210 7a 8f 0a 3e 76 db a9 be c4 f9 b1 be ec a8 97 3e
       0.13531294 -0.33175248 -0.3476087 0.29621065
000220 1d 50 69 bd 8f 05 6f be ca 8f 8f 3e ed ec f5 3d
       -0.056961168 -0.23341964 0.2803939 0.12008081
000230 64 10 5d be 81 27 88 3d 05 43 2d be 8d ff e6 bd
       -0.21588284 0.0664816 -0.16920097 -0.11279211
000240 4f 6a 8c be df 94 5f bd fc ef 02 3c 4f ff 18 3e
       -0.27424857 -0.054585334 0.007991787 0.14941142
000250 e0 9f 67 3e 58 05 88 be 4d fb 5a bd 05 10 98 be
       0.22619581 -0.26566577 -0.053462315 -0.29699722
000260 3c b5 a5 3d e3 9e b9 be 02 a8 ae be 84 d3 d4 3a
       0.08091208 -0.36254033 -0.34112555 0.0016237353
000270 64 9b 0b be 8d 69 05 bc 32 b2 07 be 6b 6b 5c bd
       -0.13633496 -0.008142841 -0.1325157 -0.05381338
000280 5c 5f 2a 3e 0e b4 56 3e b7 fb 8d be 0f 28 8b be
       0.16637939 0.20967123 -0.27731106 -0.27179
000290 9c 61 03 bf dc 6a 6a be 99 d8 33 3e ac 5b 92 be
       -0.51320815 -0.22892326 0.17563094 -0.28585565
0002a0 5f 4e 1d 3e ef ba 46 be 8a 06 1b bd e0 bc 98 bc
       0.15361927 -0.19407247 -0.037848033 -0.01864475
0002b0 69 2a d2 3e df 7a 4c 3d 91 5c 0a be 85 cc ee 3c
       0.4104798 0.049921867 -0.13511874 0.029150257
0002c0 76 f0 f0 3c eb 52 57 be f1 7d 10 3e 06 75 39 3e
       0.029411536 -0.21027724 0.14110543 0.18111047
0002d0 21 40 27 be 62 6b 92 3e d3 35 ff 3e a8 91 cd 3d
       -0.16333057 0.28597552 0.49845752 0.10037547
0002e0 85 13 7d 3e 1d 45 0a 3c 72 eb 6f be e3 d1 76 be
       0.24714477 0.008439329 -0.23429659 -0.24103503
0002f0 9b 33 7c 3d e0 6d 7b bd 1c 23 fd 3d 37 d3 78 3d
       0.061572652 -0.06138408 0.12360212 0.060748305
000300 c3 a6 9f 3e ea d5 4c bd 8e d0 ac 3e 22 ee 0b 3e
       0.31181917 -0.05000869 0.33752865 0.13665059
000310 07 66 9b be d0 2c 3f 3d 32 2f 01 3e 82 f7 16 3e
       -0.30351278 0.046673596 0.1261566 0.14742854
000320 e9 6f 2b bd fd 49 71 be 1f c1 df 3d 45 5c 85 bd
       -0.041854773 -0.2356338 0.10925507 -0.0651174
000330 07 57 ab be 10 f0 05 be 7d fc fb bd ac 69 b2 bd
       -0.33464834 -0.13079858 -0.12304018 -0.087115616
000340 69 62 1e 3e 5f a7 c5 3c ce 82 81 be df 64 80 be
       0.15467228 0.02412766 -0.2529511 -0.2507696
000350 34 7f 10 3e ae 35 5c 3d 65 df 08 be a6 ba 5a 3e
       0.14111024 0.05376213 -0.13366468 0.21360263
000360 6f 7b 79 3e f9 ef dd bd 81 ba 6f bc 66 b8 f4 3d
       0.24363492 -0.10836787 -0.014631868 0.11949234
000370 20 ca 9c be 3e a8 12 bf 32 63 f8 be 36 d4 3c be
       -0.3062296 -0.5728797 -0.4851318 -0.18440327
000380 e0 4e 7a 3e 5f 3a 5e be b3 67 2a be 77 10 e5 bb
       0.24444151 -0.21701954 -0.1664112 -0.006990488
000390 c5 1a cf 3d ad 82 b7 3d 02 ca 11 be 9f 2b a9 3d
       0.10112528 0.08960471 -0.14237216 0.08260273
0003a0 13 55 46 3d 4b 8d d9 3c fc 07 19 bd 0d b3 12 bd
       0.048420977 0.026556632 -0.03736113 -0.035815287
0003b0 e7 f8 73 be 28 c7 34 be ec 4f 1b 3e fa 8a 8e 3e
       -0.23825417 -0.17654097 0.15167207 0.27840406
0003c0 44 fb fb bd b5 4e bc 3d 80 c8 47 3e b3 87 4e bd
       -0.123037845 0.091947 0.19510078 -0.05042238
0003d0 b2 ae 3a bd d0 2f 93 be 37 02 2e 3e fa 5a c9 3e
       -0.04557676 -0.28747416 0.16993032 0.39327222
0003e0 56 23 b2 3e 58 da de be 97 0d 43 3e 04 65 92 bc
       0.34792584 -0.43525958 0.19048153 -0.017870434
0003f0 df 77 d2 bc 92 07 77 3e db 19 75 be 5c c9 1e 3e
       -0.025691925 0.24123982 -0.23935644 0.155065

layers.0.bias f4 [128]
000000 06 7c 1a 3e a6 73 4d 3d 13 1f 03 3e 6b b4 cb 3d
       0.15086374 0.05015912 0.12804823 0.09946521
000010 4f e9 59 3e 58 97 58 3e 8e e5 bd bc 11 56 be 3d
       0.21280406 0.21151483 -0.02318075 0.092937596
000020 f7 5f f6 bd 2e 6f 20 be 57 75 9a be d9 1b 9b be
       -0.120300226 -0.15667412 -0.30167648 -0.30294684
000030 c9 f2 94 3d e8 64 eb bd 25 ae 03 3e ff 83 5f be
       0.0727287 -0.11493856 0.128594 -0.21827696
000040 a4 de 8f bd cd bd 1b 3e be 14 3e be 45 94 b8 3e
       -0.07024887 0.15209122 -0.185626 0.3605062
000050 08 91 fa bd c5 42 58 be 7e 6d dd bd c7 43 1d be
       -0.12234694 -0.2111922 -0.108118996 -0.15357886
000060 1b 26 6c be 3a 85 36 3e c8 b6 84 be 74 a9 fb 3c
       -0.23061411 0.1782426 -0.259207 0.03072045
000070 6a 3c 70 be ef e9 5a 3d c2 98 5a 3e 60 5a a0 3e
       -0.23460546 0.053445753 0.21347335 0.3131895
000080 ac da 35 3e d9 3e 5a 3d 94 03 85 3d 2c b3 77 3e
       0.17759198 0.053282592 0.06494823 0.24189442
000090 e3 d5 77 be 34 25 06 3e 17 98 a4 3c 13 9e 98 bd
       -0.24202685 0.1310013 0.020092053 -0.07452025
0000a0 a4 e0 b3 be d9 f8 c6 be c6 08 4f bc 2f 59 c3 3c
       -0.35132325 -0.3886173 -0.012636369 0.023846237
0000b0 b6 ca 17 3d f9 ba 61 3e 87 05 67 be 89 95 c2 3e
       0.037058555 0.2204398 -0.22560702 0.3800471
0000c0 5d 08 ee bc f7 6b ac bd bf 4e 68 3d 32 84 43 3b
       -0.029056722 -0.0841903 0.056715723 0.0029833433
0000d0 16 7c 87 3e 85 d8 08 be 0f 92 b2 3d 85 45 9e 3b
       0.26461858 -0.13363846 0.08719265 0.0048300647
0000e0 1f 12 e1 3d b5 88 df 3d 6b 01 a4 be 16 0c 18 3e
       0.109897844 0.10914747 -0.32032332 0.1484836
0000f0 4c f9 6a be 64 81 a0 be db d8 2c 3e 84 87 74 bd
       -0.22946662 -0.31348717 0.16879599 -0.05969955
000100 06 c2 77 3e 5f 8d c2 3c 4d 1d ce bd 75 d9 14 3e
       0.24195108 0.023749052 -0.100641824 0.14536078
000110 34 a8 aa 3e 3b 46 82 be e3 1a 1a 3d 13 3f 99 3e
       0.33331454 -0.25444207 0.037623297 0.29930934
000120 7e 39 53 bd db e9 36 3e b1 d2 4e 3e a6 77 21 3e
       -0.0515685 0.17862646 0.2019756 0.15768299
000130 3d 67 10 3d e8 3b 9c 3e 5d a0 47 be 13 9e 32 3e
       0.035254706 0.30514455 -0.19494767 0.17443113
000140 23 d5 68 bd 3a 3f 52 bd aa e6 af be 81 7f 8f 3e
       -0.056843888 -0.05132983 -0.3435567 0.28026965
000150 d2 23 a9 3e ab 03 22 3e 29 b0 f3 bd bd 37 8f 3e
       0.3303514 0.15821712 -0.11898834 0.27972212
000160 4f f7 98 bd f0 48 b4 3e 74 53 42 be 2d 2e 8c be
       -0.07469045 0.35211897 -0.18977147 -0.2737898
000170 c5 5a 88 3e 9a 25 27 be fc e6 35 be 41 37 10 3e
       0.26631752 -0.16322938 -0.17763895 0.14083578
000180 86 0c 75 3e 7d b1 79 be 82 0c 36 be b9 ca 99 be
       0.23930559 -0.24384113 -0.17778209 -0.30037478
000190 9f 2b e2 3e be 40 fb bd 5f 84 90 be 8e dd 24 3e
       0.44173905 -0.12268208 -0.2822599 0.16100141
0001a0 b6 2b 40 be 3c 37 8e 3d 8d e8 3f 3e d9 69 21 3e
       -0.18766674 0.06944129 0.18741055 0.15763034
0001b0 8c 30 b9 bc 37 c9 97 3c f8 20 51 be 03 2a b7 3e
       -0.022606157 0.018528564 -0.20422733 0.3577424
0001c0 da a7 b9 be 07 0c 25 be c7 42 c7 3d ff fb 13 be
       -0.36260873 -0.1611787 0.09729534 -0.14451598
0001d0 ea b0 36 be c9 d9 06 be 4d 3c 30 be f7 ea 5d 3c
       -0.17840925 -0.13169016 -0.17210503 0.0135447895
0001e0 0d 4f a2 3e 5d 66 2d be b4 c2 1b be 1d ca a3 3e
       0.31700936 -0.1693358 -0.15210992 0.31990138
0001f0 28 7e 96 3c fb d4 6c be 93 a5 87 bd 63 a5 8f bd
       0.018370703 -0.2312812 -0.06623378 -0.07013967

layers.1.weight f4 [128]
000000 51 97 66 3f e3 75 8c 3f 97 23 40 3f 0c ac 4c 3f
       0.9007464 1.0973476 0.75054306 0.7995002
000010 ec 3f 74 3f ec cf 87 3f 61 ee 84 3f 07 f7 7c 3f
       0.9541004 1.0610328 1.0385247 0.98814434
000020 16 2d 73 3f 99 8a 84 3f cf 41 72 3f 23 a6 71 3f
       0.9499067 1.0354797 0.94631666 0.9439413
000030 0e e7 5b 3f ce c6 7f 3f 70 58 73 3f 2e a3 73 3f
       0.85899436 0.99912727 0.9505682 0.9517087
000040 93 17 89 3f e9 a9 47 3f 89 ee 78 3f e5 8f 8c 3f
       1.0710319 0.7799364 0.97238976 1.0981413
000050 fd 32 36 3f be fe 6e 3f 89 11 89 3f eb 42 6f 3f
       0.7117155 0.93357456 1.0708476 0.93461484
000060 89 a2 7b 3f aa 72 41 3f 36 cf 61 3f 5f 2a 81 3f
       0.98294884 0.7556559 0.88206804 1.0091056
000070 6c 94 67 3f 18 60 3e 3f cc 72 7e 3f 5a c8 85 3f
       0.9046085 0.7436538 0.99393916 1.0451767
000080 e1 9d 88 3f ef e3 97 3f bf 8b 95 3f 97 d8 80 3f
       1.0673181 1.1866435 1.1683272 1.0066098
000090 0e 26 72 3f 20 11 8f 3f 62 46 64 3f 09 35 5b 3f
       0.94589317 1.1177101 0.89169896 0.856278
0000a0 46 69 6e 3f fc 0d 8a 3f 35 0e 85 3f d7 bd 81 3f
       0.93129385 1.0785518 1.0394961 1.013606
0000b0 ea 04 7b 3f 05 fe 52 3f 92 21 66 3f c3 1d 73 3f
       0.98054373 0.82418853 0.89894974 0.9496729
0000c0 b4 ea 7f 3f c1 76 71 3f a1 cf 7e 3f 59 12 84 3f
       0.99967504 0.9432183 0.99535567 1.0318099
0000d0 93 cb 8b 3f 95 4e 8e 3f e6 1d 82 3f ea dd 79 3f
       1.0921501 1.1117731 1.0165374 0.9760424
0000e0 65 f7 81 3f 87 52 3e 3f 09 78 30 3f 5d 7d 7e 3f
       1.0153624 0.74344677 0.6893316 0.9941004
0000f0 24 2e 84 3f e9 81 72 3f d0 69 52 3f cc c3 61 3f
       1.0326581 0.9472948 0.8219271 0.8818939
000100 f9 dc 83 3f c4 55 73 3f 90 68 6f 3f 1b eb 47 3f
       1.030181 0.9505274 0.93518925 0.7809312
000110 b9 f1 50 3f 7e 66 81 3f 0f 05 85 3f b8 6d 61 3f
       0.8161884 1.0109403 1.0392169 0.8805804
000120 8e bc 8d 3f b5 51 82 3f 27 16 5d 3f 77 95 3c 3f
       1.1073167 1.0181185 0.86361927 0.73665565
000130 95 18 86 3f 62 af 8a 3f 4e 30 76 3f d5 4e 56 3f
       1.0476252 1.0834773 0.9616746 0.8371404
000140 31 a2 4d 3f 3e 54 60 3f 41 c7 81 3f d0 24 8d 3f
       0.8032561 0.87628543 1.0138932 1.1026859
000150 18 ed 80 3f 34 4d 69 3f b6 df 50 3f 4a be 62 3f
       1.0072355 0.9113343 0.81591356 0.8857161
000160 5a ce 78 3f af 9c 83 3f 7d 8f 95 3f 5a 09 60 3f
       0.9718987 1.0282191 1.1684414 0.8751427
000170 ed 23 93 3f 03 1c 7b 3f c6 1c 63 3f c4 58 6f 3f
       1.1495339 0.9808962 0.8871578 0.9349482
000180 08 ef 6c 3f bd 46 6a 3f 93 26 6f 3f a0 6a 6a 3f
       0.9255223 0.9151419 0.93418235 0.91568947
000190 d4 ca 7a 3f 59 2b 83 3f 04 6b 93 3f ea 7b 98 3f
       0.9796574 1.0247604 1.1517034 1.1912816
0001a0 c9 03 a2 3f 5d 72 7a 3f 21 ba 5b 3f 91 79 7d 3f
       1.2657405 0.97830755 0.85830885 0.9901362
0001b0 09 9d 86 3f 89 46 85 3f 07 6b 62 3f 37 18 8f 3f
       1.0516673 1.0412151 0.8844456 1.1179265
0001c0 19 94 75 3f ea 6c 79 3f 64 25 89 3f 19 09 65 3f
       0.95929104 0.97431815 1.0714536 0.89467007
0001d0 6f 36 60 3f dc eb 83 3f d6 4d 59 3f e1 41 70 3f
       0.8758306 1.0306354 0.84884393 0.93850523
0001e0 16 0a 78 3f c2 a7 77 3f cc a6 6e 3f af 9b 57 3f
       0.9689039 0.96740353 0.9322326 0.8422193
0001f0 56 60 70 3f e9 0c 84 3f 92 5a 81 3f 4a 74 91 3f
       0.93896997 1.031644 1.0105765 1.1363614

layers.1.bias f4 [128]
000000 64 c8 7f bc b5 73 f3 bd c8 7b 4b be 9a 16 1f bd
       -0.015611742 -0.11887304 -0.19871438 -0.038839914
000010 80 fb e7 bd 62 75 cb 3e de 26 f1 3b 81 a9 e6 bc
       -0.11327267 0.39737993 0.0073593697 -0.028156998
000020 85 ba e6 bc d2 30 d8 3d b8 b1 11 bc c8 67 91 bc
       -0.028165111 0.10556187 -0.008892469 -0.017749682
000030 2f ec ae bd 43 9d 88 3c 90 6c 5d bb 67 67 72 bd
       -0.08541142 0.01667655 -0.0033786632 -0.059180643
000040 27 57 1f 3e 01 13 1d be 4c c6 de bd a5 98 d9 3d
       0.1556059 -0.1533928 -0.10877666 0.10624818
000050 33 88 98 be 7f fc 6c bd 91 90 52 3c 82 e5 bf bc
       -0.29791412 -0.057857987 0.01285185 -0.023424868
000060 8c 4e af 3c dd 97 f8 bd 51 ed 56 bd 6f ea d7 3c
       0.021399759 -0.121383406 -0.052472416 0.026356904
000070 9b b6 fa bd dd 4f 20 bd 4b 90 b7 bd 7a 51 ad ba
       -0.122418605 -0.039138664 -0.089630686 -0.0013223134
000080 db bc 48 3c e9 63 1d 3e c4 82 72 be c7 38 18 3e
       0.012252058 0.15370144 -0.23682696 0.14865409
000090 f5 c9 c9 3a 27 d1 c0 be 6f ba d6 3c 26 20 0c be
       0.0015395271 -0.3765957 0.026211945 -0.13684139
0000a0 e2 f3 8f bd cb 09 14 3d 4e 59 36 3e 3e 77 c0 3d
       -0.07028939 0.03614215 0.17807505 0.09397744
0000b0 1b 16 4b 3d 5e 84 68 bd 89 1b 15 bd 4c 3a ab bc
       0.04958163 -0.05676686 -0.036403213 -0.020901822
0000c0 46 34 8b bd 93 39 ca bd f7 5e 2c be df a3 ec bc
       -0.0679708 -0.09874263 -0.16833101 -0.028886734
0000d0 3f 9b c4 3d 17 ea 10 be 6a 7f 52 be cd 5d 55 bd
       0.09599923 -0.14151798 -0.20556417 -0.05209141
0000e0 b4 07 93 3d 9e 9f 09 be 09 fb 00 be a6 82 e1 bd
       0.07179204 -0.13439795 -0.12595762 -0.11011247
0000f0 c7 f1 95 3d bf a0 e5 bd e2 44 cb bd 04 1b ec bd
       0.07321506 -0.112123005 -0.09925248 -0.1152859
000100 ac cc 3b 3d 14 08 07 3e df a6 12 3e 23 61 e9 bd
       0.045849487 0.13186675 0.14321469 -0.113954805
000110 06 32 23 be 0e d1 87 bd 41 73 e1 bc 82 05 ef bd
       -0.15937051 -0.06631671 -0.027520778 -0.116709724
000120 0c 07 b9 bd 10 4f 53 3d b8 19 83 bd 8e 1b 33 be
       -0.09034547 0.05158907 -0.0640139 -0.1749098
000130 88 c7 0e bd 70 82 8e 3b 0c e6 7f bb b8 9a 44 be
       -0.034858257 0.0043490455 -0.003904703 -0.19199646
000140 60 97 26 be 7c 4c 6c bd b3 a8 39 3c 59 b2 85 bd
       -0.16268682 -0.05769013 0.011331725 -0.06528158
000150 62 19 ad be 49 59 40 3b 29 e8 b7 bd 37 4f 57 3d
       -0.33808428 0.0029350093 -0.08979828 0.05256578
000160 62 d5 c5 3c 27 98 49 bc 92 a7 a2 3d 34 16 b0 bd
       0.0241496 -0.012304342 0.07942118 -0.08597985
000170 d9 42 39 bd 8b 83 d9 bd e5 ab bf bd d3 7c ba bc
       -0.045229767 -0.10620793 -0.09358958 -0.022764599
000180 80 0b 06 3d 0f 15 c1 3c ec 82 92 3d a0 31 2a bd
       0.03272581 0.023569612 0.071538776 -0.041551232
000190 95 7b fa bc 5a ea 54 bd 40 a4 f3 bd cf 73 55 bd
       -0.030576507 -0.051981308 -0.118965626 -0.052112397
0001a0 88 78 06 3e 4f 1a f9 3c f9 e6 e8 bd 67 e7 6c 3c
       0.13131917 0.030408053 -0.113721795 0.0144594675
0001b0 34 e0 9c 3d b9 24 65 bc bb 94 50 3b 61 79 68 be
       0.07659951 -0.013985806 0.0031826932 -0.22702552
0001c0 cb ad a8 3c 49 11 ca 3c 08 44 6d bd a1 8e 4b 3c
       0.020590683 0.024666445 -0.057926208 0.012424142
0001d0 06 0c 74 bd 8c 5e 95 be fc 84 1f be a4 a4 05 3d
       -0.05958178 -0.29173696 -0.15578073 0.032627717
0001e0 62 63 03 3e 65 ca bf 3c dd 13 06 bd 07 b3 bc bd
       0.1283088 0.023411939 -0.032733787 -0.09213834
0001f0 89 68 e5 bc 33 a1 2c be 24 d3 62 3c 53 d0 ca bd
       -0.028003948 -0.16858368 0.013844285 -0.09903016

layers.1.running_mean f4 [128]
000000 86 68 d8 c4 51 64 89 43 03 91 df c4 a9 12 8a c4
       -1731.2664 274.78372 -1788.5316 -1104.5831
000010 12 d6 f8 c2 07 47 e8 42 75 00 3c 44 4c 91 37 43
       -124.418106 116.138725 752.00714 183.56757
000020 f1 41 94 43 7e b2 2d c4 df ad 27 43 02 93 0e 44
       296.51517 -694.78894 167.67918 570.297
000030 97 4f 8d c4 3b 85 20 43 ba 56 83 44 5e 7a ca c3
       -1130.4872 160.52043 1050.7102 -404.956
000040 f5 2a d2 c3 b4 e8 38 c3 1e ef 04 c4 60 09 05 44
       -420.3356 -184.909 -531.7362 532.1465
000050 dd 2c 47 43 50 66 b0 c3 d0 5a 8c 43 da 72 e8 c1
       199.17525 -352.79932 280.70947 -29.05608
000060 00 98 03 45 9c 5a 4c c4 28 b8 2f c3 74 9d 03 43
       2105.5 -817.4158 -175.71936 131.61505
000070 60 86 31 c4 93 75 9a c4 91 bd b9 43 d6 96 3e c3
       -710.0996 -1235.6742 371.481 -190.5892
000080 fe f6 8f 43 83 cb a0 43 88 27 91 c3 17 b5 23 43
       287.92963 321.58994 -290.30884 163.70738
000090 91 6f 66 c3 e9 b1 38 c4 d1 33 6e c4 ac 35 36 44
       -230.4358 -738.77985 -952.80963 728.8386
0000a0 b3 18 c2 43 fe 2d 44 c4 b2 32 dd 42 26 24 7e c4
       388.19296 -784.7186 110.599014 -1016.5648
0000b0 f9 25 5e c3 2c 8e 0c c5 a3 46 9c 44 92 4f bd 44
       -222.14833 -2248.8857 1250.2074 1514.4866
0000c0 ed a5 6e 42 08 42 c1 43 94 56 46 44 7e 18 9b 43
       59.662037 386.51587 793.3528 310.19135
0000d0 f9 37 a1 c3 8a c8 b2 43 6c 69 3a c3 a5 55 b6 43
       -322.4373 357.5667 -186.4118 364.6691
0000e0 84 2a 01 c2 d0 0e 5f c3 f6 27 34 c4 93 09 28 43
       -32.29152 -223.05786 -720.6244 168.0374
0000f0 8f 1f df 42 94 f8 00 44 9b 98 31 c4 a3 26 90 c4
       111.56164 515.88403 -710.38446 -1153.2074
000100 d4 ec 44 44 b2 6f 20 43 58 94 26 43 28 4c a9 43
       787.70044 160.43631 166.57947 338.59497
000110 23 c1 47 c4 ad 7a bb c3 93 b7 c1 43 2d 62 3d c4
       -799.01776 -374.9584 387.43417 -757.534
000120 76 67 71 44 82 ba e4 43 85 5c f8 c1 33 39 10 c4
       965.6166 457.4571 -31.045176 -576.89374
000130 f4 4f 64 c3 20 7f c7 41 ae 9b 92 44 9e bc fa 43
       -228.31232 24.937073 1172.865 501.47357
000140 09 6f e0 c4 c0 72 69 c4 54 56 7a c0 79 22 e1 42
       -1795.4698 -933.79297 -3.911519 112.56733
000150 83 52 1e 44 eb a3 1f 42 53 af 0d 44 38 91 8c c3
       633.28925 39.910076 566.73944 -281.13452
000160 e2 0a 1a 44 b1 88 3a c3 1a c4 91 c3 61 4d bf c4
       616.17004 -186.53395 -291.53204 -1530.4181
000170 94 f6 26 44 67 63 97 c3 bc 82 23 44 c1 3b 74 c2
       667.8528 -302.77658 654.0427 -61.058353
000180 8d 3f c5 43 64 9b f1 43 8b e9 a6 c3 c8 04 9a c4
       394.4965 483.214 -333.82455 -1232.1494
000190 7c 09 fa c3 6b cf 77 43 00 48 70 44 b9 92 ab c1
       -500.0741 247.81023 961.125 -21.446642
0001a0 93 02 a6 3f 20 dd 96 c2 d8 ba 23 42 ad d4 42 c3
       1.2969536 -75.431885 40.932465 -194.83076
0001b0 06 21 73 44 ac 09 18 c4 6c ca a5 43 44 1b 12 43
       972.516 -608.1511 331.58142 146.1065
0001c0 37 d5 9b c3 d3 fb d6 44 a3 c0 99 c3 c4 da 9d 43
       -311.66574 1719.8695 -307.50497 315.7091
0001d0 84 37 33 42 55 10 a0 43 75 8b 8a c4 59 36 b1 43
       44.804214 320.1276 -1108.358 354.4246
0001e0 62 9e 22 c4 46 d0 aa c2 b6 5a 82 43 c5 14 86 c3
       -650.47473 -85.406784 260.70868 -268.16226
0001f0 6e a0 b6 44 60 58 71 41 f1 6c b4 41 5b 6a 96 c3
       1461.0134 15.084076 22.553194 -300.8309

layers.1.running_var f4 [128]
000000 86 ff 29 44 a0 a5 c1 41 eb 91 c6 45 89 15 f6 44
       679.99255 24.205872 6354.2397 1968.673
000010 13 3e 39 42 e8 1b 75 40 53 39 a0 41 37 d2 f5 42
       46.31062 3.8298283 20.02799 122.910576
000020 e5 a5 2a 42 9d 84 8f 41 68 b8 b7 43 9e bc 27 44
       42.662006 17.939753 367.44067 670.94714
000030 f1 1d a8 43 b4 0e ae 41 fb 38 01 45 47 9b bc 41
       336.23392 21.75718 2067.5613 23.575819
000040 a3 13 51 42 b9 00 ab 43 67 0e c8 42 8f 75 a0 40
       52.269176 342.00565 100.02813 5.0143504
000050 df 3e 75 41 4a 0b 98 43 94 95 2b 41 d3 41 e0 43
       15.327849 304.0882 10.724018 448.51425
000060 df 09 d2 45 a4 58 9d 44 1f 84 b3 43 3a 1c 88 42
       6721.234 1258.77 359.0322 68.05513
000070 c8 04 50 42 49 75 13 45 61 ad 3b 42 28 8e e0 40
       52.00467 2359.3303 46.919315 7.017353
000080 76 e0 15 42 4e 77 09 42 33 7d 1c 41 b2 1b e0 41
       37.4692 34.36651 9.780566 28.013523
000090 35 ed 91 41 1b 82 e6 40 32 79 ca 42 58 3b a7 42
       18.240824 7.203382 101.23671 83.615906
0000a0 01 37 9d 42 f0 99 15 43 fc b1 98 41 c3 ad a1 42
       78.60743 149.60132 19.086906 80.83938
0000b0 12 94 94 42 cc 91 c0 45 0c f2 1a 44 a0 42 f3 44
       74.2892 6162.2246 619.782 1946.082
0000c0 cd 6a b9 41 c0 c4 54 41 8d 2e 92 42 98 e3 6e 42
       23.177149 13.298035 73.09092 59.72226
0000d0 df 16 33 41 28 d5 ea 40 82 4e dc 40 04 86 74 41
       11.193084 7.33852 6.8845835 15.282719
0000e0 29 9d 81 43 af 0f 8c 42 fd aa 6e 42 19 25 6e 40
       259.2278 70.03063 59.66698 3.7210143
0000f0 ff 7c 81 41 82 a2 c4 41 75 8d 2b 43 23 82 98 44
       16.186033 24.57935 171.55257 1220.0668
000100 b3 70 f4 42 be bb 8e 41 f3 0a 80 41 e8 16 d1 41
       122.220116 17.841671 16.005346 26.136185
000110 8b 1c e3 43 db 07 67 41 5f 09 fc 41 6a f5 e7 43
       454.223 14.439418 31.504576 463.9173
000120 40 26 65 42 09 45 a6 40 2d 27 07 44 0c 83 90 44
       57.287354 5.195927 540.6121 1156.0952
000130 6c f8 1a 42 57 a2 10 42 06 d0 e9 44 b4 65 e4 42
       38.7426 36.158535 1870.5007 114.19864
000140 13 cc 4a 45 69 6c 81 44 12 d2 bd 41 49 18 a2 41
       3244.7546 1035.3878 23.727573 20.261858
000150 7f 81 57 41 22 91 8c 42 9f d3 60 42 ad 9f ad 43
       13.469115 70.28346 56.20666 347.24747
000160 25 75 a4 44 59 f4 37 42 08 b9 96 41 b3 72 d2 44
       1315.6608 45.98862 18.840347 1683.5844
000170 4b 3f c0 41 70 18 37 42 45 46 9e 44 02 31 9e 43
       24.030905 45.773865 1266.1959 316.38287
000180 eb 71 f3 42 0d 52 1b 41 b8 58 88 43 ca 12 86 42
       121.722496 9.707532 272.6931 67.0367
000190 66 19 9a 41 e9 63 3a 41 ac b2 b5 41 79 b4 72 42
       19.262402 11.649392 22.712242 60.676243
0001a0 6d 03 1f 41 ef 79 ba 43 31 69 6c 43 ce 38 f9 42
       9.938336 372.9526 236.4109 124.61095
0001b0 54 90 86 41 44 05 07 42 2d da 64 42 9b 7c 8f 41
       16.820473 33.755142 57.213062 17.935843
0001c0 8f 1a d2 42 40 0d a2 44 78 f1 5a 42 ae f6 e7 41
       105.05187 1296.4141 54.73581 28.99545
0001d0 4a 40 42 44 13 a9 8c 41 c7 a8 ad 40 b0 5a 7d 42
       777.0045 17.582556 5.4268527 63.338562
0001e0 a0 b8 d0 41 8c 16 f0 43 20 f4 7c 42 e8 71 a0 43
       26.090149 480.17615 63.238403 320.8899
0001f0 db 54 e2 44 d5 34 3e 42 e2 58 fe 40 3c ac ad 41
       1810.6517 47.551594 7.94835 21.709099

layers.3.weight f4 [64, 128]
000000 4f 2c 65 bb 83 a0 27 bd 2e 3c 85 bd 02 0c f7 bd
       -0.0034969037 -0.04092456 -0.06505619 -0.12062837
000010 c8 38 3f bd 09 93 5c 3d 49 fa 36 bd 30 ed 1a 3c
       -0.04668501 0.05385116 -0.044672284 0.009455964
000020 64 33 2d 3d c0 0c 6b bd 1c d8 f5 3c 1d 6a 1a bb
       0.042285338 -0.057385206 0.030010276 -0.0023561784
000030 f3 7f ec bd bd 01 53 bd b7 99 ab ba ea 18 dc bd
       -0.11547842 -0.05151533 -0.0013092075 -0.107469395
000040 aa cd 3e 3d 20 b0 76 3c 58 3d 32 3d 8f 31 5d bd
       0.046582855 0.01505664 0.043515533 -0.05400234
000050 6c 64 bb bd be c3 9e bd 8b cf 33 bd 2d 1b b9 3c
       -0.09150013 -0.077521786 -0.0438991 0.022595966
000060 21 8d 27 bd 52 33 5e 3c ad cc c1 bb d5 5a 00 3d
       -0.040906075 0.01356204 -0.005914292 0.031336624
000070 bb a5 b5 3c bc 07 6c bc 3a e1 94 3d 38 3c c0 3d
       0.022173753 -0.014406141 0.07269521 0.09386486
000080 3b 12 c4 3d a1 ef 10 3e 6d d0 71 be a1 26 d6 bd
       0.0957379 0.14153911 -0.23614664 -0.10456587
000090 48 8b e1 bc bc f4 3e 3e 83 d6 a7 bb aa 3f ab bd
       -0.027532235 0.18648046 -0.0051220073 -0.08361752
0000a0 cd 9f 8b bd 77 1f 7d 3c 48 d8 59 bb b0 16 c0 bd
       -0.06817589 0.015449396 -0.0033240486 -0.09379327
0000b0 f7 aa 58 ba 47 f0 f6 3b d1 7b a1 bc 7f 1a 8d bd
       -0.0008265222 0.0075359675 -0.01971236 -0.06889819
0000c0 dd 85 bc bc ad 2c 4b 3c 38 0a 87 bc 84 d2 a3 3d
       -0.02301305 0.012400788 -0.016484365 0.07999137
0000d0 a6 58 55 3d d2 f6 4b be b2 5f 1d bd fb ba 95 3d
       0.052086495 -0.19918373 -0.03842134 0.07311054
0000e0 af 0b 3e 3d 05 22 f8 bd 6d 86 07 3d 3a 3a e0 bc
       0.04639786 -0.12115864 0.033087183 -0.027371515
0000f0 4e c6 81 bc 1b 7c 86 3d ff ef 9c 3d 1c 5d 1e bd
       -0.01584163 0.0656664 0.07662963 -0.038663015
000100 ac e2 09 bd 14 1b 48 be 5b fa 7c bd a6 e4 71 bd
       -0.033663437 -0.1954158 -0.061762195 -0.059055947
000110 28 24 e6 bd a3 04 33 3d 7a 84 db 3d 9d 0b 6c 39
       -0.11237365 0.043705594 0.10718627 0.0002251104
000120 0b a9 29 3d 70 1f fd bd 78 4c 5a bd f7 1a 9d 3b
       0.041420978 -0.12359512 -0.053295583 0.004794474
000130 8f c0 36 bd 08 81 37 3d c2 76 24 3c f7 4b c0 3b
       -0.044617232 0.04480079 0.01003808 0.0058684307
000140 4b e8 d2 bd 11 7f b8 bd db aa ee bd cb ae 89 bd
       -0.102982126 -0.09008611 -0.11653682 -0.06722792
000150 90 31 3a bd 0d a0 e6 3b af 6b 97 bd 71 bd 71 bd
       -0.045457423 0.0070381225 -0.07393586 -0.059018556
000160 ed 2e ba 3d 9e 9b 2b bd cc 92 32 3e a1 23 e2 bd
       0.09090982 -0.041896455 0.17438811 -0.11041952
000170 e3 46 39 3e b4 ce 34 3c b9 4e 9a bd 84 93 02 bd
       0.18093447 0.01103561 -0.075345464 -0.031878963
000180 06 23 0f bc af 32 62 3d 47 94 8e 3d 2d ca 60 3d
       -0.008736378 0.055224117 0.069618754 0.05488031
000190 85 9d 8a 3c 2c 9b 3d bd a0 d5 16 3e dc 95 6f 3c
       0.016920814 -0.04629056 0.14729929 0.014623132
0001a0 57 a8 07 be 2d 3a 87 bd 80 97 6f bd 7e 53 1a bd
       -0.1324781 -0.06602893 -0.05849409 -0.03767728
0001b0 4b 3c 18 bd 7c 66 b1 3d 86 a1 ec bc e8 cf 4d 3c
       -0.037166875 0.086621255 -0.028885614 0.012561776
0001c0 ee 51 ec bd d2 49 bb 3d 11 d4 a0 3c b5 d2 ed bd
       -0.11539064 0.091449395 0.019632371 -0.11612455
0001d0 a7 e0 3f 3d 07 7d f0 bd 28 5d ff bd 6b 52 1a 3d
       0.046845105 -0.11742597 -0.1246894 0.037676256
0001e0 45 d4 26 be ea 31 f8 bc f6 41 87 bc 16 0d a7 bd
       -0.16291912 -0.030297238 -0.016510945 -0.08156793
0001f0 21 4d 46 3d 15 b7 d1 3b da ff 0d be 5e f0 e4 bd
       0.0484134 0.006399999 -0.13867131 -0.11178659
000200 a1 57 a0 3d 29 0c ea bd 51 06 d4 3c 9a 08 f8 3d
       0.07829214 -0.114281006 0.025881918 0.121110156
000210 ad 6a 9f 3d d8 2e ff 3d b5 57 16 bd 7d 21 42 be
       0.07784019 0.124601066 -0.036704738 -0.18958087
000220 70 3e f4 3d 0b 51 87 bc f1 b5 bb bd d5 70 15 be
       0.119259715 -0.016518136 -0.09165562 -0.14593823
000230 2b 72 5a 3d 82 fe 0d 3d 05 6e b9 bd 05 32 09 3c
       0.053331535 0.034666546 -0.09054188 0.008373742
000240 d8 fe 54 bb 31 2b bd 3d 5d 67 8b bd fc 85 7a bd
       -0.0032500532 0.09236754 -0.06806824 -0.061162934
000250 13 f7 a7 3c ec 46 dc 3d 9f 6d fa bc 97 1c c8 bc
       0.020503556 0.10755715 -0.03056985 -0.024427695
000260 91 24 81 be 83 e8 25 3c 16 5c 91 3d 6e 57 27 bd
       -0.2522321 0.010126236 0.07097642 -0.040854864
000270 ff 58 4f bd bf 60 92 3d 86 16 a7 bd cb a4 06 3e
       -0.050621983 0.07147359 -0.08158593 0.13148801
000280 a4 c5 36 bd 27 ca 50 bd 6c f2 af bd 30 35 c9 bc
       -0.04462208 -0.050974037 -0.0859116 -0.024561495
000290 9b 14 36 bd 1b fe 85 3e b2 61 f5 3b cf b6 64 be
       -0.044453245 0.2617043 0.007488453 -0.22335361
0002a0 e6 6c 12 3b a0 28 57 bd c2 e9 0c 3d 85 0b b4 bb
       0.002234274 -0.052528977 0.034402616 -0.0054945373
0002b0 b0 bc 86 3b 0a be 25 3d 99 8b 14 be 65 c0 26 be
       0.004111849 0.04046444 -0.14506377 -0.1628433
0002c0 02 99 a5 be 0f d6 a8 3d b1 b4 45 be 25 49 b1 3d
       -0.32343298 0.082439534 -0.1930721 0.08656529
0002d0 9b 7f 37 3d be e7 89 bc dd 79 28 3d 04 6b 46 bc
       0.04479943 -0.016834136 0.041131843 -0.012110475
0002e0 9d 24 b4 bd 54 3a bb bc 5d bb 21 3c b4 7d bc bd
       -0.08796046 -0.022854961 0.009871331 -0.092036635
0002f0 14 0c 80 bd 53 89 f8 bb 1f 92 eb 3c 22 d2 be 3a
       -0.06252304 -0.0075847297 0.0287562 0.0014558474
000300 32 5a 01 bc 7b 67 31 bd 2d 53 b0 bc f8 5c c8 3d
       -0.007895039 -0.043311577 -0.021524036 0.097833574
000310 c2 d1 c3 bc fd a7 3d 3d b2 0d cd bc 58 fa c7 bc
       -0.023903731 0.046302784 -0.025030944 -0.024411365
000320 d2 00 17 be 52 93 11 bd 23 32 d1 3d 75 8f 89 3d
       -0.14746407 -0.035540886 0.10214641 0.067168154
000330 fd 68 8a bd b1 ff 8d 3c 07 e7 cb bd 12 9e 5c bd
       -0.06758306 0.017333837 -0.09956174 -0.053861685
000340 15 8c 44 3d c1 0d 00 3d f0 41 06 bc 8c 7e 3c be
       0.047985155 0.031263117 -0.008194432 -0.18407649
000350 2a a4 07 3e 52 b0 81 3c 15 c2 b7 3d ef 7f b3 3a
       0.13246217 0.015831146 0.08972565 0.0013694743
000360 66 c6 49 be 7a 37 13 be 00 44 98 be 7d 94 2d 3b
       -0.19704589 -0.14376631 -0.2973938 0.002648621
000370 c9 08 8b be c2 45 93 3d 77 ea 15 be ea 27 99 be
       -0.2715514 0.071910396 -0.14640222 -0.29913265
000380 18 86 be 3c f2 ff 97 bd 12 f5 d3 3d c5 b8 1e bc
       0.0232573 -0.074218646 0.10349478 -0.009687607
000390 61 e9 2e be bf ec 39 3d 68 6f 25 3d 9a b1 e2 bd
       -0.17081214 0.045391794 0.04038945 -0.11069031
0003a0 e9 a5 f5 bd dd d1 d8 3d 9c 38 86 bd ac bf 64 be
       -0.119945355 0.10586903 -0.06553766 -0.22338742
0003b0 d4 50 51 be 07 d3 bf bb 68 97 5e 3d 34 92 a9 bd
       -0.2044099 -0.005854014 0.05434361 -0.08279839
0003c0 50 da 3f bd e8 c6 19 be e8 75 a8 be d4 06 fa 3c
       -0.04683906 -0.15017283 -0.32902455 0.030520834
0003d0 1e 79 4c bd c3 a6 ec bd 62 15 6a bd 89 99 c1 bd
       -0.049920194 -0.11555245 -0.0571493 -0.09453113
0003e0 1c d6 2b be 47 c6 8b be 1f bb 25 be 09 8d 73 3c
       -0.16780895 -0.2729971 -0.16184662 0.014865168
0003f0 4f 41 91 be f7 fa aa be 02 cf 2d 3d 21 56 1e be
       -0.2837014 -0.33394596 0.042433746 -0.15462543

layers.3.bias f4 [64]
000000 e8 cf 6f 3d 0a 5a 3c 3b d3 1d d1 3c d5 db c3 bd
       0.058547884 0.002874019 0.025526917 -0.09563414
000010 af b6 d9 bd 2e d5 24 3c 95 56 b4 3d 63 e8 13 be
       -0.10630547 0.010060592 0.08805577 -0.14444117
000020 54 ef 80 bd 64 e8 fa 3c 6b 9d ef bc 23 6e 97 bd
       -0.06295648 0.03062839 -0.029249867 -0.07394054
000030 6e ee 36 bd 65 3e 94 bd 26 5e dc bc 71 1e 84 bc
       -0.044660978 -0.07238463 -0.026900362 -0.016127797
000040 1c 72 4a 3d 9b c5 d1 3d 74 f4 46 3d b4 0a 08 3d
       0.04942523 0.102427684 0.048572972 0.033213332
000050 03 56 bd 3d 33 63 89 bd 5e b4 3d 3d a7 eb de 3d
       0.09244921 -0.06708374 0.04631459 0.10884791
000060 cd bc 86 3d b7 eb 83 bd c0 dd 95 bd d4 65 1d bd
       0.0657898 -0.064414434 -0.07317686 -0.03842719
000070 fe b0 4a bd 5d 68 34 be ed b2 04 3e 59 75 4e bd
       -0.0494852 -0.17617936 0.1295888 -0.05040488
000080 3b e0 53 bd 75 4e 8a bd 2e 86 76 3d 24 5b de bd
       -0.051727515 -0.06753246 0.060186557 -0.108572274
000090 fc 3b e2 3c b2 4c 32 3d b0 88 cd 3c ff d3 8a b9
       0.027616493 0.043530174 0.025089592 -0.0002647936
0000a0 e3 ec c6 bd ab d2 e1 3c 73 00 00 be 8b 80 dd bd
       -0.09713151 0.027566275 -0.12500171 -0.10815533
0000b0 a2 8d 17 bc c5 ad 3a bd 13 4f dd 3c d6 b2 01 3d
       -0.0092500765 -0.045575876 0.027015245 0.031664692
0000c0 2e bd e3 3c 41 ad 6a bd 0f b8 52 bd c7 b6 a1 3d
       0.027800169 -0.057294134 -0.051445063 0.0789619
0000d0 0e 23 5c bd 32 6d 94 bc b0 ac 8e bd ee 1b 5e bd
       -0.05374437 -0.018118475 -0.06966531 -0.054225855
0000e0 1d 6f 70 3c 2f 97 ce bd 30 4b fc 3c f5 59 03 bd
       0.014674929 -0.1008743 0.030797571 -0.03206821
0000f0 9d 0f cf bd a4 df 0b be 49 11 20 3d fe 9b a3 3b
       -0.101104 -0.13659531 0.039078984 0.004992961

layers.4.weight f4 [64]
000000 f9 e4 0b 40 5d a3 07 40 eb 7d 0d 40 a5 a8 14 40
       2.1858504 2.119346 2.2108104 2.3227932
000010 fa cb 12 40 58 58 05 40 8e 5e 0e 40 5d 0e 0c 40
       2.2936997 2.083517 2.2245212 2.1883767
000020 0a 7e 01 40 4d 1e 04 40 2b 3e f8 3f 8f be f8 3f
       2.0233178 2.0643494 1.9393972 1.9433154
000030 80 33 ff 3f d0 fb 0c 40 4a f0 00 40 cc bb f1 3f
       1.9937592 2.2028694 2.014666 1.8885436
000040 29 42 07 40 f7 9e 0d 40 29 29 08 40 a0 5c 0a 40
       2.113413 2.2128274 2.1275122 2.1619034
000050 4f c0 10 40 04 b4 ff 3f e3 54 04 40 00 7c 15 40
       2.2617376 1.9976811 2.067681 2.3356934
000060 e5 3c 10 40 3b 2d 0b 40 56 47 16 40 cc 51 fc 3f
       2.2537167 2.1746356 2.348104 1.9712462
000070 cf 44 00 40 65 ae 0a 40 1e 00 14 40 a0 07 02 40
       2.0041997 2.1668942 2.3125072 2.0317154
000080 c1 36 0d 40 ef 6a 08 40 dc d5 15 40 22 b3 0a 40
       2.206467 2.1315267 2.341178 2.1671834
000090 7d 7e 01 40 a0 3b 14 40 25 0c fd 3f 4d f5 05 40
       2.0233452 2.3161392 1.9769331 2.093097
0000a0 c1 b0 fd 3f 32 5d 02 40 aa 03 07 40 6d 30 00 40
       1.9819566 2.0369382 2.1095986 2.0029557
0000b0 8e 36 08 40 82 44 0e 40 62 de f8 3f 0e bc 09 40
       2.1283298 2.2229314 1.9442866 2.152103
0000c0 80 96 fa 3f 3d 52 01 40 c9 de 00 40 36 d7 0c 40
       1.9577179 2.0206444 2.0135977 2.2006354
0000d0 7b d4 02 40 5f 72 15 40 a8 bd 02 40 71 48 1c 40
       2.0442188 2.3351057 2.0428257 2.4419215
0000e0 d8 b9 09 40 26 97 06 40 dd e2 1d 40 63 12 fb 3f
       2.151968 2.1029754 2.4669716 1.9614986
0000f0 ee 37 fd 3f c1 8b 07 40 f5 ba 01 40 84 ff 3f 40
       1.9782693 2.117905 2.027036 2.9999704

layers.4.bias f4 [64]
000000 2e f9 e2 3f e9 5a a0 3f 95 27 e2 3f 88 6a e5 3f
       1.7732294 1.2527744 1.766833 1.7923136
000010 57 7e de 3f 76 de cf 3f 49 6b d4 3f fb 50 a9 3f
       1.7382306 1.6239765 1.6595241 1.3227838
000020 76 6a b5 3f a9 c8 a7 3f 2c b3 c5 3f f7 1c c4 3f
       1.4173114 1.3108112 1.5445304 1.5321339
000030 40 97 d0 3f 75 e2 c0 3f 5b 4b d1 3f e1 25 b5 3f
       1.6296158 1.5069109 1.6351122 1.4152185
000040 8a fe bd 3f e5 4b e3 3f 70 2a cb 3f 8c 7b df 3f
       1.4843304 1.7757536 1.5872326 1.7459579
000050 54 53 d8 3f 9a de a7 3f 51 0f cb 3f 18 95 dd 3f
       1.690043 1.3114808 1.5864049 1.7311125
000060 46 94 e4 3f 0f 49 df 3f 20 d5 e7 3f 74 ff b5 3f
       1.785775 1.7444171 1.8111916 1.4218583
000070 6e 25 b1 3f ca 09 9a 3f b4 87 e0 3f eb a7 b8 3f
       1.3839548 1.2034237 1.7541413 1.4426244
000080 ea 51 ac 3f 9f c1 cb 3f 98 7a e2 3f 17 63 e1 3f
       1.3462498 1.5918463 1.7693663 1.7608365
000090 b7 de a4 3f 52 35 e3 3f 64 a4 9f 3f 69 90 c2 3f
       1.2880467 1.7750647 1.2472043 1.520032
0000a0 19 4c ab 3f c9 f2 aa 3f cd 02 bb 3f c2 32 d8 3f
       1.3382598 1.3355342 1.461023 1.689049
0000b0 93 c0 ad 3f e7 21 f3 3f 57 32 c7 3f 87 48 eb 3f
       1.3574394 1.8994721 1.5562238 1.8381509
0000c0 bf 1a ab 3f 3d ac ce 3f c7 67 c6 3f 07 6c d8 3f
       1.3367537 1.6146313 1.550042 1.6907967
0000d0 71 da b0 3f 83 9f e1 3f 94 7b a6 3f d8 6e ef 3f
       1.3816663 1.7626804 1.3006463 1.8705702
0000e0 d6 e2 ba 3f 31 16 af 3f f5 d8 e0 3f ef a1 cc 3f
       1.4600475 1.3678647 1.756621 1.5986918
0000f0 6a e6 a9 3f b8 15 c4 3f 60 cd a3 3f 51 5c 05 40
       1.3273442 1.5319128 1.279705 2.0837595

layers.4.running_mean f4 [64]
000000 a0 1a 2b bf f5 99 10 c0 6e e0 af 3e 9a d3 d1 be
       -0.668375 -2.2593968 0.34350914 -0.40981752
000010 d0 1e 51 bf 97 ec 92 bf c1 81 76 3d aa 51 93 bf
       -0.8168764 -1.1478451 0.060182337 -1.1509297
000020 48 7c 2f bf 9e d6 19 bf 36 2d d4 bf 0d 57 8c bf
       -0.68549013 -0.60093105 -1.6576297 -1.0964066
000030 ea ce 9a bf 7b c7 de bf 05 45 5a bf 73 bc 85 be
       -1.2094395 -1.7404627 -0.85261565 -0.26120338
000040 8f f4 43 bf e2 04 fe be d5 c6 29 be b4 46 b2 3e
       -0.7654504 -0.496131 -0.16579755 0.34819567
000050 d5 3f 35 3f e4 ce c5 bf 51 6c 7b bf f2 fe 60 3f
       0.70800525 -1.5453763 -0.9821215 0.87889016
000060 ba db 2b 3f c3 9c 92 3e 04 62 89 be 1a ff 83 bf
       0.6713215 0.28635225 -0.26832592 -1.0312226
000070 00 b5 67 bf 65 e8 04 c0 ad a9 20 be 71 b4 5e bf
       -0.9051056 -2.0766842 -0.15689726 -0.8699408
000080 44 6e d8 bf 37 6e 63 bf 69 a2 3a 3f 7e 49 d8 3c
       -1.690865 -0.8884005 0.7290407 0.026402231
000090 42 3f b5 be 66 e8 0e 3f 23 b5 71 bf 4f ba ea be
       -0.35399824 0.5582336 -0.9441702 -0.45845267
0000a0 47 2f 9a bf ea b1 5a bf 03 21 e2 bf 09 4c 9f 3a
       -1.2045678 -0.85427725 -1.7666324 0.0012153398
0000b0 e0 37 0d bf e0 15 a3 bf 87 c2 5a bf f7 70 86 bf
       -0.55163383 -1.2741051 -0.85453075 -1.0503224
0000c0 5b 38 dd be e9 a3 87 bf d6 57 b0 bf ab 55 52 3d
       -0.43207058 -1.0596896 -1.3776805 0.05135123
0000d0 ae 44 8a bf 90 c5 fa 3e 38 19 3c bf e0 9d 80 3f
       -1.0802209 0.48978853 -0.7347598 1.004818
0000e0 b6 84 6a bf e3 56 9a bf 58 e9 95 3f 29 58 88 bf
       -0.9160875 -1.2057766 1.1711836 -1.0651904
0000f0 72 f1 00 bf 0b d5 b6 be 34 66 d2 bf 97 be e2 3f
       -0.50368416 -0.35709414 -1.643744 1.7714413

layers.4.running_var f4 [64]
000000 28 16 a3 3f df ed d7 40 98 00 ba 3f 71 f0 b4 3f
       1.2741137 6.747787 1.4531431 1.4135877
000010 9e fa d1 3f 72 07 dc 3f 63 83 8f 3f d2 0d 12 40
       1.6404607 1.7189772 1.1211971 2.2820935
000020 1b ac b0 3f 22 d2 30 40 90 8e ba 3f b3 37 f0 3e
       1.3802522 2.7628255 1.4574757 0.46917495
000030 92 48 62 3f 9a b0 7e 40 e8 36 70 3f 80 0b 17 3f
       0.88391984 3.979529 0.9383378 0.5900192
000040 13 80 d3 3f 7d 99 42 3f ef 02 52 3f 3f 0d 97 3f
       1.652346 0.76015455 0.82035726 1.1800917
000050 37 94 bc 3f e0 19 35 40 d2 22 b4 3f 64 25 c6 3f
       1.4732732 2.8297043 1.4073126 1.5480161
000060 ed d2 9d 3f 69 cc aa 3f 14 fc d2 3f 97 19 d4 3f
       1.2329994 1.3343631 1.6483178 1.6570309
000070 b7 10 c4 3f 5c e4 4d 40 bd 1a de 3f 40 b5 0d 3f
       1.5317601 3.217063 1.735191 0.5535469
000080 02 9b 44 40 a4 74 20 3f 3c 15 b4 3f da 10 1d 3f
       3.071961 0.6267798 1.406898 0.6135384
000090 dd 20 e7 3f 5f d8 d2 3f 79 a1 2c 40 64 8c 84 3f
       1.8056904 1.6472281 2.6973555 1.0355344
0000a0 78 f7 06 40 48 60 10 40 a9 a9 0f 40 be ef 9c 3f
       2.1088543 2.2558765 2.2447302 1.2260664
0000b0 9d 64 24 40 e8 6d 64 3f 80 6c 55 3f 19 9f 15 3f
       2.568641 0.89230204 0.8336868 0.5844589
0000c0 d8 61 b4 3f fa 7a d4 3f 83 36 e6 3f f1 ea b5 3f
       1.409236 1.660003 1.7985386 1.4212323
0000d0 30 50 af 3f f9 c8 b6 3f b0 97 c9 3f cc a6 d9 3f
       1.3696346 1.4280082 1.5749416 1.7004027
0000e0 f3 3a 9c 3f b8 42 3c 40 60 e0 f7 3f 56 b6 d6 3e
       1.220549 2.9415722 1.9365349 0.41935986
0000f0 28 15 5c 3f b1 33 52 3f 20 50 5f 40 b6 c2 8a 40
       0.8596978 0.82110125 3.4892654 4.3362684

layers.6.weight f4 [2, 64]
000000 9a f3 71 bf c5 8f 4b bf fd aa 6c bf d0 af 8e bf
       -0.9451233 -0.7951625 -0.9244841 -1.1147404
000010 5f ee 85 bf 52 86 51 bf f7 90 4d bf c3 12 8b bf
       -1.046337 -0.8184558 -0.80299324 -1.0865101
000020 0c 31 72 bf 83 68 7b bf c1 9f 60 bf c2 ef 7f bf
       -0.9460609 -0.9820635 -0.87743765 -0.99975216
000030 78 3a 47 bf 97 fb 7f bf 09 f8 76 bf fc 76 84 bf
       -0.7782359 -0.9999327 -0.9647222 -1.0348811
000040 79 48 82 bf c5 9c 8e bf 3a 88 88 bf f1 7d 8a bf
       -1.0178367 -1.1141592 -1.0666573 -1.0819684
000050 05 d6 92 bf b3 64 5a bf 36 0c 82 bf cc b7 9e bf
       -1.1471564 -0.85309905 -1.0159976 -1.239984
000060 a7 0f 89 bf 66 e2 8d bf 34 61 98 bf 73 06 60 bf
       -1.0707902 -1.1084716 -1.1904664 -0.8750984
000070 a6 4f 81 bf c3 bb 1b bf bb 06 8e bf 85 f0 2c bf
       -1.0102432 -0.60833377 -1.1095804 -0.67554504
000080 71 2b 5d bf 24 bb 31 bf 38 24 96 bf 77 37 5c bf
       -0.8639441 -0.6942618 -1.1729803 -0.8602213
000090 12 cc 7c bf 95 86 6c bf a6 8e 60 bf 4c c2 8c bf
       -0.98748887 -0.92392856 -0.87717664 -1.0996795
0000a0 bc 43 71 bf 15 5b 60 bf ed f3 45 bf 4e 4a 88 bf
       -0.9424398 -0.8763898 -0.77325326 -1.0647676
0000b0 07 c3 8c bf 5c 1f 6c bf 8c a5 85 bf 71 92 8c bf
       -1.0997018 -0.9223535 -1.0441146 -1.098219
0000c0 5f 21 81 bf c4 46 70 bf bf a4 3f bf 9d 27 97 bf
       -1.0088309 -0.9385798 -0.7486076 -1.1808964
0000d0 2e fe 1e bf 98 b4 8e bf 75 97 85 bf 46 d0 a7 bf
       -0.621066 -1.1148863 -1.0436846 -1.3110435
0000e0 2f 24 2d bf 48 7f 6b bf bf 04 9e bf 15 bd 88 bf
       -0.67633337 -0.9199109 -1.2345198 -1.0682703
0000f0 14 36 82 bf 71 4d 96 bf b4 0d 50 bf c8 4c d2 bf
       -1.0172753 -1.1742383 -0.8127091 -1.6429682
000100 d1 f7 8e bf 1c b3 7b bf 85 52 a2 bf fd e7 91 bf
       -1.1169378 -0.98320174 -1.2681433 -1.1398922
000110 68 70 9f bf 42 db 78 bf d0 ef b9 bf 70 25 84 bf
       -1.2456179 -0.9720956 -1.452631 -1.0323925
000120 f9 a6 3b bf 06 1c 50 bf ba bb 79 bf 1a 78 6c bf
       -0.73301655 -0.8129276 -0.97552073 -0.9237076
000130 c3 fa 84 bf 55 d0 7b bf e1 96 54 bf 3c e7 51 bf
       -1.0389026 -0.98364764 -0.8304272 -0.8199346
000140 a9 0b 56 bf 3e 3d 84 bf 72 d4 73 bf 05 93 7c bf
       -0.8361154 -1.033119 -0.9524604 -0.98661834
000150 1b 4b 88 bf 2a e3 6b bf 22 68 4a bf f7 bf 8d bf
       -1.064792 -0.921435 -0.79065144 -1.1074208
000160 e3 85 8b bf b7 3c 8c bf aa d1 8c bf b4 cd 5f bf
       -1.0900234 -1.0956029 -1.1001484 -0.87423253
000170 45 c4 5c bf d5 c2 93 bf 90 ae 97 bf 79 4e 8c bf
       -0.86236984 -1.1543833 -1.1850147 -1.0961448
000180 cd 05 9e bf ec 49 ac bf 05 55 8e bf 60 51 9b bf
       -1.234552 -1.3460059 -1.1119696 -1.2134209
000190 5b dc 4a bf 27 f1 a0 bf b3 36 75 bf 88 41 51 bf
       -0.79242486 -1.2573594 -0.9578659 -0.8174062
0001a0 08 84 64 bf 25 b1 5b bf 19 17 83 bf 94 9e 4c bf
       -0.89263964 -0.85817176 -1.0241424 -0.7992947
0001b0 05 f9 5c bf 75 4f 98 bf e0 b6 45 bf ea 7b 83 bf
       -0.86317474 -1.1899248 -0.7723217 -1.027219
0001c0 e5 44 49 bf d4 bd 5f bf 0c d2 6e bf 4f 69 81 bf
       -0.7862075 -0.8739903 -0.93289256 -1.0110263
0001d0 67 12 8d bf e1 0c 81 bf d1 40 53 bf 84 31 9b bf
       -1.1021241 -1.0082055 -0.82520777 -1.2124486
0001e0 18 1c 9c bf 88 52 58 bf bf 93 8a bf 4c f0 6c bf
       -1.2196074 -0.8450093 -1.0826339 -0.92554164
0001f0 3a b3 4e bf bc df 45 bf 32 ad 84 bf f5 0f d3 bf
       -0.8074223 -0.77294517 -1.0365355 -1.6489245

layers.6.bias f4 [2]
000000 9c 05 93 bf 1f 98 8e bf
       -1.1486087 -1.1140174
